ONR/src/example/conv_autoencoder.pth (torch_old, 24803 bytes, 9 tensors)

encoder.0.weight f4 [16, 1, 3, 3]
-0.2693575 0.41444597 0.28717163 -0.10824556 0.07729129 -0.066610835 0.34912243 0.22843146
-0.09126011 -0.083083145 -0.17902292 0.090657115 0.042143457 -0.0579176 0.07553175 -0.156147
-0.14313228 0.09530655 -0.07287635 -0.20299064 0.5076588 0.0014506807 -0.1415917 0.34082603
-0.024649423 -0.2661666 0.28947204 0.00037032514 0.059302375 0.04910122 -0.059486173 -0.037049767
0.005512432 0.01218628 -0.029426854 -0.05266869 -0.02757886 -0.10641868 0.038735226 0.39544484
0.12232266 0.33157557 -0.067688674 -0.27373806 -0.04305895 0.12938793 0.26213586 0.26384512
0.115020834 0.06382315 0.11719904 0.24550852 0.17096053 0.24508621 0.578317 0.27231956
0.15603101 0.07507152 -0.035705246 -0.31770828 0.023809165 -0.03435713 -0.075041406 0.07969802
0.07486259 -0.02383508 -0.0977005 0.036090493 -0.20108141 -0.14564098 -0.06491924 -0.08447244
-0.2048727 -0.07449879 -0.26443 -0.3956603 -0.104734786 -0.38362694 -0.19033515 -0.10877186
0.84096545 0.3556948 0.15359594 0.4557832 -0.44136798 -0.18185663 -0.29258433 -0.22932024
-0.027172586 -0.16566603 0.021719249 -0.2711676 -0.07261646 -0.11250234 0.010914112 0.24471806
0.16221428 0.15418135 0.05425594 -1.1188062 -0.3070266 -0.25379583 -0.0934104 0.2106858
0.06053082 -0.30465275 -0.08632903 -0.51895416 -0.13404968 -0.07157702 -0.0014942271 -0.152664
-0.13579066 -0.3246245 0.41097564 0.03561046 0.098961055 0.056718495 0.29673862 -0.22946735
-0.13826735 0.23550309 -0.0057774354 -0.26066053 0.31307745 0.09702572 0.51308113 -0.29604805
-0.21240313 -0.0066273273 -0.07079982 -0.01187103 0.04946124 -0.4396686 -0.19821896 0.14802076
-0.23054847 -0.08470628 0.24849445 0.010983582 -0.014092962 0.42131972 0.15873411 0.09977188
00000000: 3ae9 89be 4332 d43e 2908 933e d9af ddbd
00000010: e54a 9e3d 436b 88bd 2dc0 b23e f0e9 693e
00000020: 95e6 babd 7f27 aabd c951 37be 70aa b93d
00000030: 9e9e 2c3d 013b 6dbd 64b0 9a3d 00e5 1fbe
00000040: 4591 12be 1530 c33d 3240 95bd c7dc 4fbe
00000050: edf5 013f c424 be3a 6afd 10be c080 ae3e
00000060: 96ed c9bc fd46 88be ae35 943e 3328 c239
00000070: 0ce7 723d 5c1e 493d c6a7 73bd 7fc1 17bd
00000080: a2a1 b43b f7a8 473c 9610 f1bc 20bb 57bd
00000090: 10ed e1bc 09f2 d9bd d4a8 1e3d bf77 ca3e
000000a0: 4e84 fa3d 46c4 a93e 5ca0 8abd 6527 8cbe
000000b0: 955e 30bd 457e 043e ac36 863e b516 873e
000000c0: 0b90 eb3d b6b5 823d 0d06 f03d 9666 7b3e
000000d0: 4710 2f3e e1f7 7a3e 950c 143f 786d 8b3e
000000e0: 98c6 1f3e 19bf 993d aa3f 12bd a9aa a2be
000000f0: 700b c33c 10ba 0cbd 4faf 99bd b738 a33d
00000100: 8f51 993d c941 c3bc 3317 c8bd a0d3 133d
00000110: 49e8 4dbe e922 15be 61f4 84bd e3ff acbd
00000120: 26ca 51be d292 98bd 5e63 87be fd93 cabe
00000130: 317f d6bd c06a c4be 38e7 42be c8c3 debd
00000140: 8349 573f a11d b63e 4148 1d3e 6a5c e93e
00000150: fcfa e1be a038 3abe 9dcd 95be edd2 6abe
00000160: 0b99 debc 5ba4 29be 91ec b13c 7bd6 8abe
00000170: f0b7 94bd a067 e6bd 1bd1 323c 5f97 7a3e
00000180: 801b 263e b7e1 1d3e 7a3b 5e3d 0b35 8fbf
00000190: 9732 9dbe 87f1 81be f44d bfbd 05be 573e
000001a0: 2aef 773d 72fb 9bbe 46cd b0bd 2eda 04bf
000001b0: 5244 09be f996 92bd f1d9 c3ba f453 1cbe
000001c0: b50c 0bbe 2f35 a6be 666b d23e 46dc 113d
000001d0: 18ac ca3d a751 683d 20ee 973e 7df9 6abe
000001e0: f595 0dbe b927 713e a450 bdbb 4c75 85be
000001f0: b04b a03e 6cb5 c63d 4959 033f 9c93 97be
00000200: 3580 59be 0d2a d9bb 7fff 90bd b57e 42bc
00000210: df97 4a3d 3e1c e1be e9f9 4abe c192 173e
00000220: e614 6cbe 7c7a adbd 5475 7e3e 7bf4 333c
00000230: 2be6 66bc 38b7 d73e 328b 223e 3355 cc3d

encoder.0.bias f4 [16]
1.0065819 1.6648818 0.7200458 2.4358401 1.4725527 0.47422877 0.8817453 1.520886
-0.875077 -0.3668164 1.5718607 -0.25177762 1.4947258 1.3192171 -0.6002578 0.83840007
00000000: add7 803f d91a d53f ec54 383f cee4 1b40
00000010: 9b7c bc3f 1dce f23e 0fba 613f 64ac c23f
00000020: 0c05 60bf 5ccf bbbe bb32 c93f ffe8 80be
00000030: 2d53 bf3f 1bdc a83f 7faa 19bf 63a1 563f

encoder.3.weight f4 [8, 16, 3, 3]
-0.084890865 0.035693478 -0.044265617 -0.030071883 0.08935578 -0.06382862 0.0127769485 0.21431084
-0.14207058 -0.20565525 -0.08373866 -0.024198469 0.1904807 0.011260624 -0.22048655 -0.011934166
-0.4625808 -0.07455659 0.022974873 -0.0080418065 -0.020626847 -0.04282903 0.020457773 -0.100078166
-0.09250883 0.0915578 0.1112562 -0.19790323 -0.13038188 -0.2596766 0.19122283 0.16627064
0.076928526 0.346022 -0.22926667 0.3973109 -0.042350296 -0.028863546 0.002218569 0.026443765
-0.068087064 0.06180612 -0.09091747 0.53087884 0.21254292 0.0675983 0.036402047 0.069442585
0.027783362 0.041355528 0.14437403 0.008073351 0.117681295 -0.07237881 -0.06416673 -0.01890032
0.025411617 -0.04739867 0.0021369862 0.07717488 0.09347213 0.4771867 -0.10677303 -0.17106514
0.107035175 -0.05494231 0.08163661 0.055056486 -0.007670371 0.28996724 -0.29476395 0.10730172
0.010643083 0.05074526 0.062445905 -0.12263587 0.027039194 -0.012139516 0.20741826 0.02884262
-0.030354224 0.05550107 -0.06550649 -0.0081164185 0.0788084 -0.05394567 0.036405824 -0.16456726
0.30429652 0.31043467 -0.038332433 0.074026465 0.020544266 -0.108176365 0.037475057 -0.029436829
0.3588625 0.3538539 0.07324517 0.046641495 0.0043459265 0.032789625 0.03562826 0.06619363
-0.0028519765 -0.14187662 -0.41996908 -0.04475855 -0.015963439 -0.039105497 -0.0072436044 -0.02280408
-0.11296837 -0.042241048 0.26977694 0.011528626 0.31542367 -0.014851122 -0.061700873 -0.06518991
-0.03054278 -0.14751987 -0.16016398 -0.014323387 0.111674376 0.2182606 -0.02116445 -0.047641236
0.027787833 -0.028864833 0.016632186 0.025612997 -0.17932509 0.35455748 -0.27588797 0.05393681
-0.05483733 -0.029856183 -0.040335953 -0.24767327 -0.10770243 0.08172928 0.11978834 -0.043732923
0.047874447 0.019051619 0.009424392 0.0932647 0.044210415 0.09608439 -0.085516386 0.044399537
0.053473104 0.1965958 0.050670642 0.11968304 0.023967657 0.07893025 0.05174788 -0.04547735
-0.016910013 0.038710847 -0.10187003 -0.12695006 -0.08304353 -0.088556826 -0.023279676 0.09754565
-0.094976485 -0.10782601 -0.06892223 0.2986239 0.3139288 0.31565884 0.053256396 0.2788273
0.23776688 0.1956337 0.10078976 0.22731955 0.037147976 -0.037173685 0.06533555 0.12647958
0.13076285 0.11612626 0.052047357 0.103787124 0.15894015 -0.18225089 -0.19071884 -0.10847971
-0.15433562 -0.11995123 -0.13965818 -0.10678814 -0.14350404 -0.19891566 -0.08111074 -0.06303411
-0.011154217 -0.0048221336 0.008243719 -0.040035304 -0.056585986 0.025881018 0.00870925 0.15113707
0.3358569 0.2734187 0.052120924 0.17512143 0.09523939 0.1167858 0.3187078 -0.0113759665
-0.02274663 0.07653042 0.084783114 0.033763785 0.0144359525 0.19034679 -0.015447527 0.05957203
0.024533903 -0.05895957 -0.121968314 0.014716151 -0.07730924 -0.0952926 0.007949105 0.12286985
0.093756996 0.16121969 0.059646863 0.10452008 0.08466222 0.1476231 0.1182528 0.17179848
-0.017835269 0.109313294 0.11312075 0.09523946 0.04157369 0.12990816 0.039163537 -0.038638122
-0.10872706 0.1868661 -0.01753861 0.11442489 0.31839222 0.25729617 0.11361438 0.13015985
00000000: 43db adbd 5333 123d dd4f 35bd 4f59 f6bc
00000010: 2a00 b73d 94b8 82bd 6856 513c 4d74 5b3e
00000020: f37a 11be 4a97 52be 2d7f abbd de3b c6bc
00000030: 5f0d 433e 7b7e 383c 3ac7 61be 8587 43bc
00000040: 64d7 ecbe 20b1 98bd cd35 bc3c c8c1 03bc
00000050: a2f9 a8bc 7e6d 2fbd 0f97 a73c c8f5 ccbd
00000060: 4575 bdbd a882 bb3d 4ada e33d 25a7 4abe
00000070: d482 05be 55f4 84be ebcf 433e da42 2a3e
00000080: b48c 9d3d cc29 b13e e2c4 6abe 566c cb3e
00000090: 8177 2dbd 3e73 ecbc 6965 113b 98a0 d83c
000000a0: 3b71 8bbd 6a28 7d3d f032 babd ade7 073f
000000b0: daa4 593e fa70 8a3d 501a 153d ea37 8e3d
000000c0: ef99 e33c 6a64 293d c9d6 133e 1746 043c
000000d0: e402 f13d 573b 94bd d969 83bd d8d4 9abc
000000e0: 062c d03c 1c25 42bd ae0c 0c3b dd0d 9e3d
000000f0: 516e bf3d d151 f43e d1ab dabd b32b 2fbe
00000100: 4235 db3d 300b 61bd 1831 a73d e982 613d
00000110: bc57 fbbb 9676 943e 4deb 96be 01c1 db3d
00000120: 5360 2e3c 43da 4f3d 47c7 7f3d 8428 fbbd
00000130: 4d81 dd3c d2e4 46bc 7465 543e 5c47 ec3c
00000140: 6ca9 f8bc 1755 633d 4428 86bd bafa 04bc
00000150: 4c66 a13d 23f6 5cbd 461e 153d 5284 28be
00000160: c1cc 9b3e 4bf1 9e3e 7802 1dbd 309b 973d
00000170: 734c a83c 928b ddbd 727f 193d 8125 f1bc
00000180: d3bc b73e 572c b53e 9001 963d 270b 3f3d
00000190: 4668 8e3b 6a4e 063d f0ee 113d 8790 873d
000001a0: 3ae8 3abb 1b48 11be 3006 d7be be54 37bd
000001b0: c2c5 82bc 162d 20bd c25b edbb 9fcf babc
000001c0: f65b e7bd f304 2dbd 3420 8a3e 90e2 3c3c
000001d0: 367f a13e 1f52 73bc 0eba 7cbd 4a82 85bd
000001e0: da34 fabc 730f 17be 0702 24be a4ac 6abc
000001f0: 89b5 e43d b57f 5f3e 1261 adbc 7523 43bd
00000200: 4fa3 e33c f175 ecbc 3940 883c 59d2 d13c
00000210: ffa0 37be 8f88 b53e 3041 8dbe d8ec 5c3d
00000220: 1c9d 60bd f494 f4bc 5037 25bd 109e 7dbe
00000230: 1793 dcbd ae61 a73d 9753 f53d 4b21 33bd
00000240: ff17 443d 2412 9c3c c468 1a3c 9001 bf3d
00000250: fb15 353d e5c7 c43d 3723 afbd 4adc 353d
00000260: 9d06 5b3d 6950 493e 058c 4f3d 621c f53d
00000270: d257 c43c 2fa6 a13d 96f5 533d 7546 3abd
00000280: de86 8abc 448f 1e3d 3ca1 d0bd 32ff 01be
00000290: ba12 aabd 485d b5bd 05b5 bebc 04c6 c73d
000002a0: 0883 c2bd e2d3 dcbd 1927 8dbd 3be5 983e
000002b0: 47bb a03e 099e a13e 6123 5a3d 74c2 8e3e
000002c0: 2979 733e 3354 483e dd6a ce3d 75c6 683e
000002d0: 7a28 183d 6f43 18bd a5ce 853d dd83 013e
000002e0: b2e6 053e 9bd3 ed3d 9c2f 553d 588e d43d
000002f0: 35c1 223e fa9f 3abe cd4b 43be 9c2a debd
00000300: 280a 1ebe fea8 f5bd 8e02 0fbe beb3 dabd
00000310: b9f2 12be 8cb0 4bbe 631d a6bd 0718 81bd
00000320: 2dc0 36bc fd02 9ebb aa10 073c 0ffc 23bd
00000330: b5c6 67bd 6e04 d43c 3eb1 0e3c adc3 1a3e
00000340: 70f5 ab3e 89fd 8b3e c07c 553d 0853 333e
00000350: df0c c33d 652d ef3d ab2d a33e 4362 3abc
00000360: 2457 babc fbbb 9c3d c5a2 ad3d e54b 0a3d
00000370: c684 6c3c 45ea 423e a017 7dbc cd01 743d
00000380: 53fb c83c 977f 71bd 86ca f9bd 031c 713c
00000390: 4f54 9ebd c428 c3bd f73c 023c 30a3 fb3d
000003a0: ab03 c03d c616 253e 4550 743d a00e d63d
000003b0: 6363 ad3d 832a 173e 862e f23d f1eb 2f3e
000003c0: 451b 92bc a6df df3d daab e73d e80c c33d
000003d0: 2c49 2a3d a506 053e f269 203d 0243 1ebd
000003e0: 4bac debd d459 3f3e 22ad 8fbc 9957 ea3d
000003f0: 4e04 a33e 53bc 833e a8ae e83d a048 053e

encoder.3.bias f4 [8]
0.086617604 0.35650682 -0.257592 0.5693155 0.58826685 -0.03678985 0.45231992 0.2823568
00000000: 9264 b13d 1088 b63e 19e3 83be a9be 113f
00000010: a898 163f f4b0 16bd 7a96 e73e 1291 903e

decoder.0.weight f4 [8, 16, 3, 3]
0.14662077 0.013615264 -0.41192642 -0.011714624 3.2767e-41 -0.303285 -0.1234082 0.0021533084
-0.076372266 0.10881186 0.024339525 -0.42184862 -0.014837912 0.025811164 -0.22996756 0.03479411
-0.01122059 0.18110213 -0.016313655 0.58495176 0.12533112 0.07203945 0.08551562 0.102889195
0.49272045 -0.2657558 0.24443492 -0.25866717 -0.14991416 -0.09856498 -5.05381e-40 1.966365e-39
-3.3507e-40 -0.063451305 -0.054314625 -0.11270793 0.040775813 0.35725296 0.1816911 0.13294005
0.2058033 -0.10840321 -0.029987145 -0.0010793991 0.25520048 -0.02191934 -1.10117e-39 0.08523734
0.07252577 0.0725181 -0.31133336 0.17484327 -1.991429e-39 -0.00987268 -0.0020087915 0.17279953
-0.10406471 -0.13978365 -0.08713529 -0.024319801 0.20623854 0.19315384 -0.10474231 -0.08874534
-0.051863074 0.037924908 0.0428966 0.10371495 -0.0025001653 0.21723922 0.114094235 0.060434643
-0.01561912 2.35547e-40 -0.027326113 0.14786781 -0.015908185 -0.17310251 0.12406476 -1.083568e-39
-0.11287524 0.040408112 0.31218264 0.25770637 -0.12771997 -0.27525258 0.117642514 -0.22956628
0.0420433 0.03293186 0.3209856 0.3205756 0.21929413 -0.07281279 -0.16545066 -0.15010835
-0.60444087 0.20099759 0.21887004 -0.34081873 -0.058547266 -0.35939914 -0.007351819 -0.10695981
-0.3344357 -0.22466034 -0.03396385 0.076530665 -0.20502165 0.28384355 0.45834926 0.25503477
0.4313203 0.14007734 -0.31433675 0.15036182 -0.35395223 -0.05735335 0.16891038 0.26025844
-0.12189587 -0.060361728 -0.20012735 -1.25797e-39 0.019406509 -0.29619953 0.3103149 -0.22671758
0.11701966 -0.56559205 0.041823473 -0.090345964 -0.06575762 -0.14971647 0.08065468 -0.055743538
0.11221337 -0.029082453 -0.114437304 -0.11889666 0.15525989 0.09109707 0.056410648 0.27119914
0.2254182 0.16140649 -0.16481112 0.26371872 1.463808e-39 0.19997488 -0.23117895 0.15533067
0.29212603 -0.018441003 -0.11909436 -0.24972309 -0.1581656 -0.15331064 -0.16726282 0.098044686
0.18455246 0.3095377 -0.25661054 -0.06311166 -0.21518588 -0.008782113 -0.1259589 0.14184599
0.19362156 -0.08043129 0.086927585 0.18945274 0.16129698 0.14861915 -9.12746e-40 3.39885e-40
-5.03482e-40 -0.012436786 -0.0058450014 -0.24056539 0.16564545 0.018379437 0.073381275 -0.06072455
-0.2232802 -0.18691859 -0.12155419 -0.12687978 0.2559444 -0.07420841 1.223978e-39 0.08397373
0.14416319 0.112008 -0.18793611 0.39591342 -5.01624e-40 -0.17897213 0.08210331 -0.262009
-0.18737204 -0.11953415 -0.10161464 -0.003229214 0.14534608 0.032597546 -0.0907681 -0.12956671
-0.17665236 -0.055909816 -0.08071068 -0.2028799 -0.0667825 0.14672555 0.116932 0.08843114
0.28967664 -1.858349e-39 0.08149671 -0.08648428 0.028103922 -0.30724 0.04452704 -6.699e-41
-0.06137766 0.05143984 0.012553535 -0.092944264 -0.28039366 0.12917909 0.3653756 -0.2608118
-0.38713828 -0.09983135 -0.01628143 -0.29454184 0.13202241 -0.30730018 -0.29742798 0.22509697
-0.2685842 0.14818402 0.10106264 -0.00036838738 0.052923955 0.15560208 0.12351612 -0.32087773
-0.08321104 -0.36308554 -0.051893644 0.1827209 -0.33225504 0.17242682 0.17178531 0.08411645
00000000: c123 163e 8e12 5f3c 05e8 d2be b2ee 3fbc
00000010: 575b 0000 2c48 9bbe 70bd fcbd 851e 0d3b
00000020: 1069 9cbd c1d8 de3d af63 c73c 8bfc d7be
00000030: b71a 73bc ef71 d33c 9e7c 6bbe 4584 0e3d
00000040: 91d6 37bc d672 393e 37a4 85bc 66bf 153f
00000050: cd56 003e 6b89 933d d022 af3d 92b7 d23d
00000060: db45 fc3e 2511 88be 264d 7a3e 0670 84be
00000070: 1983 19be 70dc c9bd cc80 0580 6d69 1500
00000080: 0aa6 0380 c2f2 81bd 0379 5ebd 6ad3 e6bd
00000090: 8a04 273d dce9 b63e 3b0d 3a3e 7021 083e
000000a0: 1abe 523e 8102 debd 9aa7 f5bc a07a 8dba
000000b0: a3a9 823e 3090 b3bc 9dfd 0b80 ea90 ae3d
000000c0: 6488 943d 5f84 943d 1667 9fbe 1d0a 333e
000000d0: 4baf 1580 05c1 21bc eea5 03bb 5cf2 303e
000000e0: e11f d5bd 7223 0fbe fd73 b2bd 523a c7bc
000000f0: 3230 533e 1fca 453e 2383 d6bd 1ec0 b5bd
00000100: 606e 54bd 2657 1b3d 58b4 2f3d 8168 d43d
00000110: d0d9 23bb f573 5e3e 3daa e93d 518a 773d
00000120: 56e7 7fbc 9c90 0200 03db dfbc a96a 173e
00000130: e251 82bc c941 31be aa15 fe3d 8ccc 0b80
00000140: 222b e7bd fa82 253d 67d6 9f3e 17f2 833e
00000150: 06c9 02be e8ed 8cbe 8fee f03d 6c13 6bbe
00000160: 9835 2c3d 8fe3 063d 3958 a43e 7c22 a43e
00000170: a48e 603e df1e 95bd e66b 29be 01b6 19be
00000180: a3bc 1abf 50d2 4d3e 781f 603e cb7f aebe
00000190: 42cf 6fbd 2a03 b8be 87e7 f0bb bf0d dbbd
000001a0: 283b abbe 5c0d 66be ae1d 0bbd 1cbc 9c3d
000001b0: 32f1 51be f153 913e c1ac ea3e eb93 823e
000001c0: 04d6 dc3e 6f70 0f3e bff0 a0be 73f8 193e
000001d0: 3a39 b5be 59eb 6abd d8f6 2c3e 9840 853e
000001e0: 8ba4 f9bd dc3d 77bd 2fee 4cbe b5b2 0d80
000001f0: 66fa 9e3c 77a7 97be 98e1 9e3e a728 68be
00000200: 01a8 ef3d a4ca 10bf 174f 2b3d 4e07 b9bd
00000210: eeab 86bd 464f 19be 482e a53d 5653 64bd
00000220: 20d0 e53d 533e eebc 1b5e eabd 1880 f3bd
00000230: 73fc 1e3e 1a91 ba3d da0e 673d 9dda 8a3e
00000240: 07d4 663e be47 253e 3fc4 28be 2406 873e
00000250: 80f0 0f00 37c6 4c3e 2dba 6cbe 010f 1f3e
00000260: 8b91 953e 9611 97bc bee7 f3bd 69b7 7fbe
00000270: 2af6 21be 77fd 1cbe f246 2bbe a7cb c83d
00000280: 52fb 3c3e ba7b 9e3e 7562 83be b040 81bd
00000290: b059 5cbe dae2 0fbc 5ffb 00be 1340 113e
000002a0: bb44 463e 29b9 a4bd 1707 b23d e6ff 413e
000002b0: 092b 253e 9e2f 183e 5df0 0980 76b3 0300
000002c0: 817b 0580 a9c3 4bbc 6d87 bfbb c656 76be
000002d0: f69e 293e 7990 963c ec48 963d 4eba 78bd
000002e0: 91a3 64be 9667 3fbe 67f1 f8bd c6ec 01be
000002f0: 250b 833e 94fa 97bd f453 0d00 6bfa ab3d
00000300: 849f 133e 7364 e53d 5372 40be 2ab5 ca3e
00000310: 5376 0580 7844 37be c825 a83d 0b26 86be
00000320: 75de 3fbe 52ce f4bd 561b d0bd 39a1 53bb
00000330: 9ad5 143e 0185 053d a0e4 b9bd 23ad 04be
00000340: 5be4 34be b101 65bd a44b a5bd c0bf 4fbe
00000350: 43c5 88bd 393f 163e 0b7a ef3d 631b b53d
00000360: 7f50 943e 523c 1480 bfe7 a63d ac1e b1bd
00000370: 323a e63c 904e 9dbe fc61 363d beba 0080
00000380: 2467 7bbd 95b2 523d 58ad 4d3c 9059 bebd
00000390: c28f 8fbe 8647 043e 8312 bb3e 2089 85be
000003a0: fd36 c6be 6174 ccbd a260 85bc 30ce 96be
000003b0: e230 073e 7356 9dbe 7b48 98be d27f 663e
000003c0: de83 89be 8dbd 173e eef9 ce3d 1e24 c1b9
000003d0: cac6 583d 2756 1f3e 05f6 fc3d 164a a4be
000003e0: 8d6a aabd 59e6 b9be 6e8e 54bd 301b 3b3e
000003f0: 551d aabe a890 303e 7de8 2f3e 3f45 ac3d

decoder.0.bias f4 [16]
-0.09979802 -0.17464423 0.47677633 -0.103989236 0.4880483 -0.1505928 0.26250193 0.8651197
-1.5187155 0.077226065 0.17477705 0.009688302 -1.2989258 -0.66071016 0.09439921 0.13318126
00000000: e862 ccbd f0d5 32be 071c f43e 4ff8 d4bd
00000010: 77e1 f93e 0035 1abe a766 863e 7c78 5d3f
00000020: 4565 c2bf b328 9e3d c1f8 323e afbb 1e3c
00000030: 3343 a6bf 4d24 29bf 5f54 c13d ab60 083e

decoder.2.weight f4 [16, 8, 5, 5]
-0.023614714 -0.124616586 -0.20806059 -0.063072294 -0.09703946 -0.1111258 -0.09771454 -0.018718926
0.5209616 -0.2157957 0.12338884 0.14359948 0.16796595 -0.28458646 -0.1340681 0.15766105
0.31055397 0.2770389 0.0772247 0.027174214 -0.23713772 0.10774651 0.04498122 0.088201575
0.05752412 -0.019002166 -0.04159667 0.20804104 -0.08121611 -0.09708135 0.32255632 0.06345839
0.15234329 -0.21161793 -0.20856528 0.372836 -0.004252651 0.058045715 -0.08346122 -0.06386705
0.20374927 0.12001185 0.2535335 0.19132833 -0.124305286 0.012821905 0.025095087 0.28853697
0.10202576 0.0059368145 0.051593784 0.21671277 0.22994252 0.1791232 -0.012112887 0.045517057
0.027827322 0.16731435 0.16899385 -0.0043346104 0.15000202 0.22968677 0.16478825 0.0993258
0.03088647 0.010695453 -0.010768162 -0.06591298 0.049659364 -0.10992839 -0.03440419 -0.05273254
-0.2615558 -0.082230546 -0.22335023 -0.22931582 -0.032093175 0.15361878 0.08376596 0.2858479
-0.14940768 0.023637773 0.2790335 0.21162626 0.36962909 -0.2284286 -0.11304081 0.32882473
0.21307759 0.17013584 -0.12407159 -0.1309231 -0.07258498 0.18872194 0.120176926 -0.079453066
-0.024156662 0.04631805 0.11039822 0.23791707 0.15019347 0.07868073 -0.22576773 -0.17532305
-0.026777804 0.26881248 0.19552544 0.07101915 -0.04827192 -0.059982505 0.02905191 0.13959144
0.40529355 0.62687844 0.16969363 0.18647899 0.17564686 0.10118246 0.20992829 0.09759128
0.08871258 -0.02856195 -0.21909197 0.16817854 -0.16960241 -0.085278414 1.010694e-39 0.246832
0.52057344 -8.05567e-40 -0.00157947 0.217004 0.08429092 0.072922066 0.12915954 0.14807037
0.38420287 -0.08764791 -0.21296981 -0.071186684 -0.037189823 -1.066552e-39 -0.1183425 0.17633247
9.92117e-40 0.15823889 0.04213983 0.017297855 -0.031965956 -0.072777994 -0.07587724 -0.11902637
0.021747956 -0.2838271 -0.2281015 -0.056134414 -0.23099545 -0.19424576 -0.13974391 -0.17165665
-0.20002696 -0.31419125 -0.18898329 -0.069756255 -0.2445909 -0.11503276 -0.101409964 -0.2849329
-0.15123577 -0.24741273 -0.096290246 -0.13932826 -0.08451625 -0.19588543 -0.012362416 -0.041654933
-0.088065416 0.08593128 0.029028608 -0.07974705 0.13254401 0.16017973 0.07610553 0.20948404
0.028376758 -0.12321651 -0.061443985 -0.017999463 0.10420518 0.191868 -0.04975264 0.00209657
0.1028745 0.18409462 0.08110649 -0.10227786 -0.18316583 0.24963754 -0.16334923 0.037639905
0.1098872 -0.02456648 -0.07782571 -0.17153437 -0.14909296 -0.25049025 -0.2449375 -0.08556006
0.13768044 -0.057835255 -0.051459014 -0.05620103 0.24816959 0.37138975 -0.37205234 0.059381794
0.196021 0.49200395 -0.11612479 -0.40231007 0.009040118 0.22597776 -0.06595178 0.33794367
-0.078164354 0.09287134 0.053980373 0.062426522 0.15233025 -0.005363596 0.09843724 0.1689122
0.06360661 -0.12720154 -0.1492809 0.075242415 0.42094326 0.21188444 -0.5308905 -0.43882808
0.34763485 0.41817126 -0.20149422 -0.27673107 -0.09686579 0.31075275 0.15627137 -0.013402328
-0.09426576 -0.08785541 -0.023242412 0.038381282 0.1245878 0.102380894 0.059551734 0.03428799
00000000: a573 c1bc fb36 ffbd d60d 55be 0c2c 81bd
00000010: a0bc c6bd ec95 e3bd 901e c8bd 6f58 99bc
00000020: bd5d 053f 8cf9 5cbe 4ab3 fc3d be0b 133e
00000030: 44ff 2b3e 51b5 91be 2649 09be e671 213e
00000040: ee00 9f3e 0bd8 8d3e fc27 9e3d 759c de3c
00000050: 3bd4 72be 34aa dc3d 3a3e 383d 07a3 b43d
00000060: 699e 6b3d 6eaa 9bbc 4561 2abd b608 553e
00000070: a254 a6bd 96d2 c6bd 1a26 a53e 79f6 813d
00000080: e1ff 1b3e 5fb2 58be 2392 55be 5ce4 be3e
00000090: d259 8bbb 58c1 6d3d b7ed aabd bacc 82bd
000000a0: a6a3 503e c6c8 f53d 25cf 813e 93eb 433e
000000b0: c593 febd f812 523c 3694 cd3c 1ebb 933e
000000c0: e2f2 d03d 9c89 c23b 0154 533d f4e9 5d3e
000000d0: 0d76 6b3e 126c 373e 2175 46bc 1870 3a3d
000000e0: 20f6 e33c 7454 2b3e b90c 2d3e 5909 8ebb
000000f0: 219a 193e 0233 6b3e 40be 283e 536b cb3d
00000100: 9f05 fd3c fb3b 2f3c f26c 30bc 62fd 86bd
00000110: 9e67 4b3d 2322 e1bd 68eb 0cbd 13fe 57bd
00000120: a4ea 85be 7d68 a8bd ecb5 64be c4d1 6abe
00000130: 2274 03bd 3e4e 1d3e 7d8d ab3d a85a 923e
00000140: 54fe 18be 01a4 c13c 7bdd 8e3e 8eb4 583e
00000150: 0640 bd3e 30e9 69be f181 e7bd b75b a83e
00000160: 0331 5a3e 1738 2e3e 3f19 febd b510 06be
00000170: 6fa7 94bd 5340 413e 521f f63d 4ab8 a2bd
00000180: 31e4 c5bc ffb7 3d3d 7618 e23d 88a0 733e
00000190: 51cc 193e 5d23 a13d a82f 67be e387 33be
000001a0: 205d dbbc caa1 893e d237 483e 7d72 913d
000001b0: c7b8 45bd 37b0 75bd 45fe ed3c 0ff1 0e3e
000001c0: a382 cf3e 1b7b 203f 2bc4 2d3e 59f4 3e3e
000001d0: c5dc 333e c038 cf3d 71f7 563e f0dd c73d
000001e0: f1ae b53d c0fa e9bc a559 60be ff36 2c3e
000001f0: 41ac 2dbe 73a6 aebd 6701 0b00 87c1 7c3e
00000200: 4d44 053f 98c5 0880 3806 cfba 4c36 5e3e
00000210: b8a0 ac3d 2a58 953d 6642 043e c29f 173e
00000220: 3db6 c43e bf80 b3bd c214 5abe 53ca 91bd
00000230: 5b54 18bd 1d9d 0b80 8d5d f2bd 8090 343e
00000240: 9ecd 0a00 6009 223e d09a 2c3d 3bb4 8d3c
00000250: bcee 02bd a10c 95bd 8765 9bbd 19c4 f3bd
00000260: c528 b23c c951 91be 7193 69be 33ed 65bd
00000270: 128a 6cbe 5ce8 46be 0719 0fbe c3c6 2fbe
00000280: ded3 4cbe addd a0be d684 41be 5edc 8ebd
00000290: 0976 7abe 4c96 ebbd 07b0 cfbd bae2 91be
000002a0: 8ddd 1abe c359 7dbe d233 c5bd 11ac 0ebe
000002b0: db16 adbd 3196 48be bb8b 4abc 5d9e 2abd
000002c0: a45b b4bd bdfc af3d 67cd ed3c 6c52 a3bd
000002d0: 9eb9 073e 2806 243e 37dd 9b3d fc82 563e
000002e0: 6076 e83c f058 fcbd b0ac 7bbd 9c73 93bc
000002f0: 8769 d53d 0c79 443e 6dc9 4bbd 9c66 093b
00000300: deaf d23d 4d83 3c3e 291b a63d 0e77 d1bd
00000310: d38f 3bbe fca0 7f3e 0545 27be 4d2c 1a3d
00000320: 8a0c e13d a53f c9bc 1663 9fbd b5a6 2fbe
00000330: d3ab 18be 4240 80be e5d0 7abe 1d3a afbd
00000340: 1afc 0c3e a9e4 6cbd b0c6 52bd 0d33 66bd
00000350: 2b20 7e3e cc26 be3e a57d bebe 533a 733d
00000360: bbb9 483e f1e7 fb3e d5d2 edbd 96fb cdbe
00000370: 011d 143c b766 673e ba11 87bd f406 ad3e
00000380: a214 a0bd 5433 be3d 861a 5d3d f4b2 7f3d
00000390: 76fc 1b3e 1bc1 afbb 7799 c93d 52f7 2c3e
000003a0: 2f44 823d 1f41 02be 18dd 18be b218 9a3d
000003b0: e085 d73e 3cf8 583e 71e8 07bf 13ae e0be
000003c0: 32fd b13e 8b1a d63e 8054 4ebe b2af 8dbe
000003d0: 9261 c6bd fc1a 9f3e 9a05 203e 7095 5bbc
000003e0: 680e c1bd 8aed b3bd df66 bebc b135 1d3d
000003f0: e327 ff3d 13ad d13d 85ec 733d 9071 0c3d

decoder.2.bias f4 [8]
-0.1378134 -0.37637058 -0.49511662 -0.4262293 -0.4715315 -0.67896307 0.73499864 -0.06419375
00000000: f51e 0dbe a5b3 c0be ed7f fdbe ba3a dabe
00000010: 946c f1be 86d0 2dbf df28 3c3f 0378 83bd

decoder.4.weight f4 [8, 1, 2, 2]
-1.5993217 -1.3344297 -0.73850965 -0.46647108 -0.70254254 -1.4463145 -0.81463224 -1.5402539
0.2243155 0.21669671 -0.99244726 -0.98585415 -1.4978833 -0.83057064 -1.2711781 -0.64798653
-1.1827618 -1.2927902 -0.873762 -0.955447 -0.93342453 -1.156621 -1.1184304 -1.2679117
0.89398104 0.93561333 1.0308301 0.98986095 -1.404988 -0.9798396 -1.4522692 -0.9731996
00000000: 93b6 ccbf 98ce aabf f80e 3dbf 4cd5 eebe
00000010: d4d9 33bf d520 b9bf bd8b 50bf 0a27 c5bf
00000020: f6b2 653e bee5 5d3e 0611 7ebf f060 7cbf
00000030: a4ba bfbf 47a0 54bf f7b5 a2bf 72e2 25bf
00000040: bd64 97bf 267a a5bf deae 5fbf 2d98 74bf
00000050: e9f4 6ebf 280c 94bf ba28 8fbf ee4a a2bf
00000060: f1db 643f 5b84 6f3f 3ef2 833f 8767 7d3f
00000070: a6d6 b3bf c5d6 7abf f5e3 b9bf 9c23 79bf
